…
Dense(128, activation = tfa.activations.gelu),         tf.keras.layers.BatchNormalization(),         tf.keras.layers.Dense(64, activation = tfa.activations.gelu),         tf.keras.layers.Dense(32, activation = tfa.activations.gelu),         tf.keras.layers.Dense(3, 'softmax')     ],     name = 'vision_transformer')  model.summary() <pre>Model: \"vision_transformer\"\n_________________________________________________________________\n Layer (type)                Output Shape              Param #   \n=================================================================\n vit-b16 (Functional)        (None, 768)               85798656  \n                                                                 \n flatten (Flatten)           (None, 768)               0         \n                                                                 \n batch_normalization (Batch  (None, 768)               3072      \n Normalization)                                                  \n                                                                 \n dense (Dense)               (None, 128)               98432     \n                                                                 \n batch_normalization_1 (Bat  (None, 128)               512       \n chNormalization)                                                \n                                                                 \n dense_1 (Dense)             (None, 64)                8256      \n                                                                 \n dense_2 (Dense)             (None, 32)                2080      \n                                                                 \n dense_3 (Dense)             (None, 3)                 99        \n                                                                 \n=================================================================\nTotal params: 85911107 (327.72 MB)\nTrainable params: 85909315 (327.72 MB)\nNon-trainable params: 1792 (7.00 KB)\n_________________________________________________________________\n</pre> In\u00a0[14]: Copied! <pre>plt.figure(figsize=(4, 4))\npatch_size = 
…
n  )\n  (classifier): Sequential(\n    (0): Linear(in_features=2048, out_features=512, bias=True)\n    (1): ReLU()\n    (2): Dropout(p=0.5, inplace=False)\n    (3): Linear(in_features=512, out_features=136, bias=True)\n    (4): Sigmoid()\n  )\n)</pre> In\u00a0[10]: Copied! <pre>summary(model, input_size=(3, 224, 224))\n</pre> summary(model, input_size=(3, 224, 224)) <pre>----------------------------------------------------------------\n        Layer (type)               Output Shape         Param #\n================================================================\n            Conv2d-1         [-1, 64, 224, 224]           1,792\n              ReLU-2         [-1, 64, 224, 224]               0\n            Conv2d-3         [-1, 64, 224, 224]          36,928\n              ReLU-4         [-1, 64, 224, 224]               0\n         MaxPool2d-5         [-1, 64, 112, 112]               0\n            Conv2d-6        [-1, 128, 112, 112]          73,856\n              ReLU-7        [-1, 128, 112, 112]               0\n            Conv2d-8        [-1, 128, 112, 112]         147,584\n              ReLU-9        [-1, 128, 112, 112]               0\n        MaxPool2d-10          [-1, 128, 56, 56]               0\n           Conv2d-11          [-1, 256, 56, 56]         295,168\n             ReLU-12          [-1, 256, 56, 56]               0\n           Conv2d-13          [-1, 256, 56, 56]         590,080\n             ReLU-14          [-1, 256, 56, 56]               0\n           Conv2d-15          [-1, 256, 56, 56]         590,080\n             ReLU-16          [-1, 256, 56, 56]               0\n        MaxPool2d-17          [-1, 256, 28, 28]               0\n           Conv2d-18          [-1, 512, 28, 28]       1,180,160\n             ReLU-19          [-1, 512, 28, 28]               0\n           Conv2d-20          [-1, 512, 28, 28]       2,359,808\n             ReLU-21          [-1, 512, 28, 28]               0\n           Conv2d-22          [-1, 512, 28, 28]       2,359,808\n             ReLU-23          [-1, 512, 28, 28]               0\n        MaxPool2d-24          [-1, 512, 14, 14]               0\n           Conv2d-25          [-1, 512, 14, 14]       2,359,808\n             ReLU-26          [-1, 512, 14, 14]               0\n           Conv2d-27          [-1, 512, 14, 14]       2,359,808\n             ReLU-28          [-1, 512, 14, 14]               0\n           Conv2d-29          [-1, 512, 14, 14]       2,359,808\n             ReLU-30          [-1, 512, 14, 14]               0\n        MaxPool2d-31            [-1, 512, 7, 7]               0\n           Conv2d-32            [-1, 512, 5, 5]       2,359,808\n        MaxPool2d-33            [-1, 512, 2, 2]               0\n          Flatten-34                 [-1, 2048]               0\n           Linear-35                  [-1, 512]       1,049,088\n             ReLU-36                  [-1, 512]               0\n          Dropout-37                  [-1, 512]               0\n           Linear-38                  [-1, 136]          69,768\n          Sigmoid-39                  [-1, 136]               0\n================================================================\nTotal params: 18,193,352\nTrainable params: 3,478,664\nNon-trainable params: 14,714,688\n----------------------------------------------------------------\nInput size (MB): 0.57\nForward/backward pass size (MB): 218.54\nParams size (MB): 69.40\nEstimated Total Size (MB): 288.51\n-----------------------------------------------------
…
